models/mnist_net.pth (torch, 815723 bytes, 4 tensors)

fc1.weight f4 [256, 784]
-0.03204054 0.0131319305 0.03416731 -0.033190567 -0.03141172 0.016419962 0.01072627 0.0011250561
-0.034203917 0.015844414 0.003837963 0.0066734953 -0.029963646 -0.011366755 -0.031181974 -0.021172393
0.020701036 -0.02048109 -0.011812848 -0.02724412 0.025257073 0.027634116 0.011050452 0.021813922
0.0022920202 -0.035110153 0.018865025 0.012968375 0.017643973 0.0032193135 -0.0001930002 -0.034143504
-0.013849789 0.025741735 0.02369333 -0.024553202 0.009813849 -0.012509899 0.0012910498 0.00927925
0.01928127 -0.035714783 -0.00024203976 -0.0024356917 -0.016236966 0.006516434 0.021644766 -0.031746875
0.006060562 -0.014015685 -0.0007298005 0.0011598945 -0.010973053 0.021141637 -0.025157107 0.032675922
0.024464665 0.001439254 -0.0029372158 0.027455498 -0.016543234 -0.035543162 0.0041884775 0.032323554
-0.008489085 -0.034102447 -0.009153313 -0.033765133 -0.035642046 -0.0018236088 -0.02485486 8.24912e-06
0.019610355 0.005683141 0.0135254655 -0.02785839 -0.018063996 -0.004250425 -0.029009782 0.028539259
-0.012207113 -0.0049335365 -0.032102704 0.007760245 -0.010020728 0.0319636 -0.014552449 0.00031741735
0.026334802 0.02394577 -0.034197338 0.02590057 0.012026575 -0.00087620417 0.019006073 -0.03076404
-0.009684516 -0.036712814 -0.028349966 0.011496687 -0.016754368 0.009265962 -0.03210267 0.021206489
-0.023284102 0.013033765 0.033319917 0.004255876 0.0036766056 -0.033397634 -0.0074195825 -0.018242832
-0.0354694 -0.016555784 0.028012514 -0.021587668 -0.01884568 -0.023682017 0.006534625 -0.006052058
-0.024864439 0.003786053 0.010532211 -0.024330122 0.022729876 0.019072773 0.010367063 -0.008193272
0.01861074 -0.014797041 -0.0016953083 -0.011719362 -0.012153275 -0.027511477 0.032377668 0.03186903
-0.008095517 -0.03267239 0.020964192 0.031536598 0.0059658354 -0.025036305 -0.023338908 0.017879007
-0.0024756333 -0.023814471 -0.016039519 0.009807526 -0.019342143 -0.004911324 0.03241785 0.0006326785
0.004219626 -0.008539516 0.030879632 0.0045743277 0.001639377 -0.006986247 -0.025972622 0.013097195
-0.016056355 -0.006015922 -0.005780342 -0.028076999 0.03214282 0.033655018 0.022370739 -0.021641765
-0.0026419612 0.027176995 0.0064728637 0.010457564 0.033954438 0.0065698028 -0.011486265 -0.011232673
0.0223756 0.0028657077 0.019540561 -0.028302105 0.026789954 0.030304149 0.020244926 -0.015182211
0.00463493 -0.012563437 -0.019102115 0.0029546178 0.030916618 -0.034247488 -0.019772008 0.00707872
-0.011998857 0.01154786 0.01748713 0.015606828 -0.009446337 0.0093827825 0.02804227 0.018332154
-0.019771133 0.013898425 -0.013597842 -0.0064485623 -0.03141311 -0.016786883 -0.027649052 -0.036679827
-0.014211984 0.020156335 -0.030821284 -0.02689191 -0.034202565 -0.01950521 0.013630316 -0.034417585
-0.024255753 -0.019983726 0.017351773 0.006027001 0.015520568 -0.03431732 0.03329952 -0.01835895
-0.031557646 -0.007003114 -0.0039882553 0.0016302248 -0.014953773 -0.030708754 -0.02876099 0.020305237
-0.022053797 -0.006732854 -0.033449393 -0.03801973 0.03214883 0.019075466 0.00555374 -0.006813256
-0.0298683 -0.006728312 -0.0003447066 0.011808533 0.004310198 0.009700339 -0.02981106 -0.0037091267
0.0004805305 0.032959756 0.03500732 -0.007851122 -0.006188278 -0.0034563984 0.010058403 0.014156764
00000000: f13c 03bd 4f27 573c 05f3 0b3d d5f2 07bd
00000010: 93a9 00bd 2883 863c 3dbd 2f3c 9e76 933a
00000020: 6819 0cbd 25cc 813c 5686 7b3b 56ad da3b
00000030: 5276 f5bc a03b 3abc 5771 ffbc ba71 adbc
00000040: 3895 a93c f5c7 a7bc ad8a 41bc 102f dfbc
00000050: ece7 ce3c f160 e23c f40c 353c 1cb3 b23c
00000060: b835 163b aacf 0fbd d38a 9a3c 4f79 543c
00000070: 188a 903c 1efb 523b 1960 4ab9 0fda 0bbd
00000080: 3aea 62bc 55e0 d23c 8418 c23c cc23 c9bc
00000090: 44ca 203c 52f6 4cbc 7138 a93a ff07 183c
000000a0: c1f3 9d3c aa49 12bd 0ecc 7db9 20a0 1fbb
000000b0: 6303 85bc cf87 d53b 5d50 b13c 0309 02bd
000000c0: ae97 c63b 0ba2 65bc 1550 3fba 9a07 983a
000000d0: 52c8 33bc 3a31 ad3c 4716 cebc 30d7 053d
000000e0: 1f6a c83c 5aa5 bc3a 4e7e 40bb 5aea e03c
000000f0: ad85 87bc b595 11bd 7f3f 893b b465 043d
00000100: ce15 0bbc 02af 0bbd c7f7 15bc 4f4d 0abd
00000110: 65fd 11bd 2806 efba 6b9c cbbc b365 0a37
00000120: e5a5 a03c a439 ba3b ea99 5d3c 4737 e4bc
00000130: f2fa 93bc 2647 8bbb eca5 edbc 2acb e93c
00000140: 5800 48bc 81a9 a1bb 207e 03bd a749 fe3b
00000150: fb2d 24bc 44ec 023d 656d 6ebc 096b a639
00000160: 15bc d73c eb29 c43c 8212 0cbd 6f2d d43c
00000170: 1d0b 453c 11b1 65ba a0b2 9b3c de04 fcbc
00000180: ceab 1ebc 2d60 16bd 303e e8bc 9a5c 3c3c
00000190: 7540 89bc 43d0 173c 177e 03bd 3bb9 ad3c
000001a0: 4dbe bebc 938b 553c 777a 083d e074 8b3b
000001b0: 35f3 703b f5cb 08bd f81f f3bb fe71 95bc
000001c0: 5d48 11bd ff9f 87bc 807a e53c 9fd8 b0bc
000001d0: 4162 9abc ca00 c2bc 6820 d63b 5850 c6bb
000001e0: 82b0 cbbc 6e1f 783b 4b8f 2c3c f74f c7bc
000001f0: 0134 ba3c 813e 9c3c 9dda 293c 133d 06bc
00000200: 8d75 983c 4a6f 72bc 1b35 deba 9102 40bc
00000210: 881e 47bc c05f e1bc 729e 043d 1a89 023d
00000220: 0fa3 04bc 7cd3 05bd 19bd ab3c 852c 013d
00000230: 0e7d c33b f018 cdbc 3d31 bfbc ff76 923c
00000240: 3c3e 22bb 9116 c3bc 4f65 83bc bfaf 203c
00000250: 6a73 9ebc 2cef a0bb 94c8 043d 56da 253a
00000260: ca44 8a3b 53e9 0bbc 48f7 fc3c 3ee4 953b
00000270: 5de0 d63a e3ec e4bb 89c4 d4bc 9e95 563c
00000280: 9e88 83bc 3621 c5bb 0669 bdbb bc01 e6bc
00000290: 31a8 033d d8d9 093d d742 b73c 124a b1bc
000002a0: c124 2dbb 4aa2 de3c 511a d43b 3456 2b3c
000002b0: cf13 0b3d 8047 d73b e330 3cbc 3f09 38bc
000002c0: 094d b73c 99ce 3b3b 8713 a03c d1d9 e7bc
000002d0: 9b76 db3c 6840 f83c b0d8 a53c cfbe 78bc
000002e0: 9ce0 973b e0d6 4dbc 0a7c 9cbc 43a2 413b
000002f0: d944 fd3c 1847 0cbd e8f8 a1bc 9bf4 e73b
00000300: db96 44bc 3c33 3d3c 2b41 8f3c c8b3 7f3c
00000310: cfc4 1abc 3eba 193c e7b8 e53c 502d 963c
00000320: 12f7 a1bc 38b6 633c 7cc9 5ebc 764e d3bb
00000330: 09ab 00bd a584 89bc 4480 e2bc 963d 16bd
00000340: 62d9 68bc e61e a53c eb7c fcbc 6c4c dcbc
00000350: fd17 0cbd 64c9 9fbc b051 5f3c 74f9 0cbd
00000360: 00b4 c6bc e9b4 a3bc 4e25 8e3c 267e c53b
00000370: fb49 7e3c 5190 0cbd 1465 083d 8265 96bc
00000380: 9742 01bd 617a e5bb e9af 82bb 44ad d53a
00000390: ab00 75bc ed90 fbbc 2b9c ebbc 2b57 a63c
000003a0: 2aaa b4bc 469f dcbb 3b02 09bd 94ba 1bbd
000003b0: 7eae 033d 2744 9c3c 26fc b53b bc41 dfbb
000003c0: 5dae f4bc 2c79 dcbb bdb9 b4b9 9478 413c
000003d0: 903c 8d3b 2cee 1e3c 5336 f4bc d214 73bb
000003e0: b6ef fb39 cf00 073d d663 0f3d fea1 00bc
000003f0: 0ac7 cabb be84 62bb 00cc 243c c6f1 673c

fc1.bias f4 [256]
-0.03105043 0.036908053 0.028443288 -0.0006046561 -0.0020722807 -0.027595272 0.003944907 0.009155424
0.031033596 -0.02999911 -0.02347333 -0.009725206 -0.01765539 -0.003953597 0.0065006497 -0.003430339
0.028001416 -0.0023082572 -0.021263743 0.02757551 0.0034527576 0.019146467 0.010960495 -0.012465579
-0.033682074 0.021372689 0.022658842 0.0059342654 0.029020786 -0.011331876 -0.017050661 -0.026270963
0.018263506 -0.027187409 0.015043552 -0.0018807126 0.0052206465 0.0020926136 -0.028222093 -0.019980488
-0.026415208 0.028528087 0.015026145 0.031275306 -0.0063436087 0.025637388 0.0026764143 0.02147803
-0.03400288 -0.008708219 0.0141492095 0.022777071 0.03156668 0.017280372 0.03374107 -0.018139765
-0.010842428 0.009723564 0.000101787125 -0.019214522 -0.011340641 0.031314284 -0.023845553 -0.0018576753
0.012637436 0.02326698 0.031262167 -0.029795578 0.017513627 -0.0045207064 -0.016819984 0.008262652
0.017385004 0.008884031 0.0062130326 -0.0019066366 -0.025809715 -0.0038210028 0.009546093 -0.007838434
0.035454057 -0.02598774 0.024375629 -0.0043464345 -0.0011164962 0.029375274 0.020507738 -0.013710016
-0.0033871091 -0.03532712 0.0028377844 0.021399606 -0.029489452 0.0128731765 0.03394899 -0.032425687
0.015776437 -0.036441877 0.006516669 0.033734348 0.033732165 -0.035356123 0.026711596 -0.0026087747
0.031675767 -0.030070173 -0.025626065 -0.015825255 0.020106886 0.005824643 0.0067947465 0.003014334
0.011316137 -0.011008615 0.031513564 -0.015544205 0.0027794086 0.020388868 -0.017879784 -0.017318673
-0.025130503 0.017340813 -0.012568678 0.0004984486 -0.016297603 -0.025499118 0.038277138 0.013002527
0.02034878 -0.029008938 -0.03489933 -0.018233586 0.016018625 0.024814954 -0.0005139726 -0.0034364385
0.02059254 0.013718889 0.01852339 0.020142112 -0.010652286 0.0079146605 0.020478342 0.032046765
0.020902837 -0.007861795 -0.029900284 -0.03012311 0.02709691 -0.030260911 -0.023355795 0.024090502
-0.02160456 0.0144459065 0.01640715 -0.011197482 0.019016253 -0.0002844117 0.027659765 -0.0030550119
-0.033890154 -0.025635112 -0.032250084 -0.029840834 -0.0027029226 0.0097203525 -0.03193546 -0.0152894445
0.032871336 -0.008725768 0.023095999 -0.021898359 0.010766827 0.024906741 0.022069575 -0.022284029
-0.006448103 0.03356618 -0.027299153 0.035503604 0.0064142654 -0.020795042 0.019903017 0.011007413
0.028759751 0.023686057 -0.012523974 0.019054085 0.03603982 0.024015646 -0.0069075213 -0.028079195
0.0020995298 -0.029790746 -0.023928644 -0.0170919 0.0078117424 0.013658504 -0.01810499 -0.029932864
0.02837686 -0.004630955 -0.024084032 0.03601022 0.014565002 -0.02053304 0.011029576 -0.019980574
-0.010994914 0.031628985 0.0072279777 -0.008443919 0.027782358 0.006685247 0.02481869 0.013562883
0.0019968955 -0.009151796 -0.012051039 -0.011015562 -0.016459145 -0.017464167 0.019771047 0.0059777987
0.005207745 -0.007129679 0.025402691 -0.023551349 0.02359164 -0.014512182 0.031168805 -0.003025291
0.0013613148 -0.030361319 -0.023072653 0.017103696 -0.00082055695 0.01122711 -0.015140477 0.004538336
-0.022823356 0.011406947 0.0071246424 0.005776464 0.003019987 -0.017089078 0.005612986 0.024698734
-0.03628289 -0.01888759 0.03257181 -0.023052994 -0.008921982 -0.013992173 -0.0014698172 -0.0060805203
00000000: 795d febc e62c 173d e601 e93c c981 1eba
00000010: 1acf 07bb 7b0f e2bc 4744 813b a200 163c
00000020: 2b3a fe3c b2c0 f5bc 244b c0bc 7856 1fbc
00000030: 09a2 90bc 2d8d 81bb 6703 d53b 8acf 60bb
00000040: 3a63 e53c 2146 17bb 4d31 aebc 09e6 e13c
00000050: a947 623b 0dd9 9c3c a693 333c 6e3c 4cbc
00000060: 37f6 09bd c715 af3c 099f b93c 3a74 c23b
00000070: 00bd ed3c 55a9 39bc d4ad 8bbc 3436 d7bc
00000080: 599d 953c 21b8 debc 3b79 763c 3e82 f6ba
00000090: f511 ab3b 3b24 093b 0532 e7bc 1fae a3bc
000000a0: b564 d8bc bcb3 e93c 3830 763c 891a 003d
000000b0: 0cde cfbb 8005 d23c c866 2f3b b2f2 af3c
000000c0: 9b46 0bbd ebac 0ebc 16d2 673c fb96 ba3c
000000d0: 104c 013d 918f 8d3c 1434 0a3d d899 94bc
000000e0: 70a4 31bc 954f 1f3c 8c76 d538 c667 9dbc
000000f0: 19ce 39bc 6843 003d c057 c3bc 3d7d f3ba
00000100: 400d 4f3c 659a be3c c20c 003d db15 f4bc
00000110: bd78 8f3c 6f22 94bb 10ca 89bc 1360 073c
00000120: ff6a 8e3c 548e 113c b296 cb3b 1ce8 f9ba
00000130: e56e d3bc ca69 7abb 3767 1c3c c66c 00bc
00000140: 4638 113d 3ee4 d4bc 66af c73c 896c 8ebb
00000150: 6557 92ba 6aa4 f03c d8ff a73c fa9f 60bc
00000160: 43fa 5dbb 2cb3 10bd 1ffa 393b 3a4e af3c
00000170: dd93 f1bc 04ea 523c 190e 0b3d ccd0 04bd
00000180: 963d 813c 1444 15bd c889 d53b 072d 0a3d
00000190: bd2a 0a3d 95d1 10bd 47d2 da3c faf7 2abb
000001a0: 73be 013d b955 f6bc c1ed d1bc f7a3 81bc
000001b0: 32b7 a43c a6dc be3b 77a6 de3b 228c 453b
000001c0: 5267 393c 7a5d 34bc 5e14 013d 1fad 7ebc
000001d0: bd26 363b 8e06 a73c a078 92bc e4df 8dbc
000001e0: 7cde cdbc 520e 8e3c dbec 4dbc 52aa 023a
000001f0: 8d82 85bc 87e3 d0bc 7dc8 1c3d 8d08 553c
00000200: 7cb2 a63c 27a4 edbc 9af2 0ebd 9a5e 95bc
00000210: 7e39 833c bb48 cb3c 1ebc 06ba df35 61bb
00000220: b0b1 a83c 31c5 603c 5dbe 973c 1201 a53c
00000230: ed86 2ebc 7eac 013c 32c2 a73c 7843 033d
00000240: 6d3c ab3c c2ce 00bc 71f1 f4bc bec4 f6bc
00000250: 57fa dd3c bbe5 f7bc a754 bfbc 7259 c53c
00000260: 0cfc b0bc 86ae 6c3c 4a68 863c a575 37bc
00000270: f9c7 9b3c 181d 95b9 bb96 e23c 9836 48bb
00000280: 67d0 0abd ba00 d2bc aa18 04bd c474 f4bc
00000290: 8423 31bb 1d42 1f3c c2ce 02bd 9480 7abc
000002a0: 18a4 063d 86f6 0ebc d233 bd3c 3064 b3bc
000002b0: 5867 303c 3909 cc3c 41cb b43c ff8c b6bc
000002c0: 9c4a d3bb b17c 093d 79a2 dfbc 3a6c 113d
000002d0: c22e d23b 5d5a aabc a70b a33c 7058 343c
000002e0: 9299 eb3c 4309 c23c 5b31 4dbc 5017 9c3c
000002f0: 7e9e 133d 76bc c43c 7d58 e2bb 5706 e6bc
00000300: 4498 093b b90b f4bc 0106 c4bc 5004 8cbc
00000310: a5f9 ff3b ebc7 5f3c ea50 94bc c435 f5bc
00000320: 9776 e83c 44bf 97bb e04b c5bc 747f 133d
00000330: 0ca2 6e3c e834 a8bc 65b5 343c 4dae a3bc
00000340: 0324 34bc 658d 013d acd8 ec3b 5d58 0abc
00000350: d497 e33c eb0f db3b 9150 cb3c db36 5e3c
00000360: 59de 023b 6af1 15bc b971 45bc 9e7a 34bc
00000370: 54d5 86bc 0311 8fbc e4f6 a13c 69e1 c33b
00000380: bba5 aa3b 15a0 e9bb 4e19 d03c c2ee c0bc
00000390: 4143 c13c 81c4 6dbc b955 ff3c f643 46bb
000003a0: 256e b23a 4db8 f8bc dc02 bdbc 0d1d 8c3c
000003b0: a51a 57ba eaf1 373c c30f 78bc 52b6 943b
000003c0: 0cf8 babc 34e4 3a3c d575 e93b 7e48 bd3b
000003d0: f9ea 453b 65fe 8bbc 24ed b73b 0055 ca3c
000003e0: 5e9d 14bd 26ba 9abc 056a 053d a2d9 bcbc
000003f0: 812d 12bc 6d3f 65bc e2a6 c0ba 1a3f c7bb

fc2.weight f4 [10, 256]
-0.017010229 -0.013320353 0.0049269474 0.044348467 -0.052032933 -0.20847377 0.11040156 0.13289824
-0.056473337 -0.14179885 0.108503364 0.0031656888 -0.16998613 -0.15380038 0.008734398 0.12798412
0.011300917 -0.021977387 -0.034557417 -0.06883275 -0.15881069 -0.021357313 0.17157085 0.10406811
-0.045443423 0.061945852 -0.08406075 -0.04607026 -0.15457445 -0.021146322 0.010676445 0.07486935
-0.023386857 0.10593583 0.055848096 0.07650527 -0.04571082 0.03599838 0.070691034 0.0018871543
0.002081066 -0.18042007 0.075943835 0.020845473 0.00032042107 0.03198434 -0.15516269 -0.1797987
0.057660487 -0.040233944 -0.048922837 0.06288808 0.01238697 -0.019868148 0.025821825 0.13851185
0.018198013 -0.09925777 0.087479986 0.07692578 0.04303603 -0.036458593 0.10075793 0.0050322344
-0.081317455 -0.07775687 0.119001314 0.028008176 -0.059300866 0.1502012 0.077515356 -0.047080107
-0.14430617 0.047017533 0.021177102 -0.14077888 0.15806578 -0.033171397 -0.0058373855 -0.06574489
0.010297959 -0.04232097 -0.03497871 -0.022990022 -0.12942831 -0.11970007 -0.14911456 0.061489966
-0.0008335146 -0.013525932 0.08609123 -0.085754655 0.07182357 0.13809805 -0.11336822 0.056340914
0.055378526 0.030714225 0.08056211 -0.07837204 -0.04988954 -0.04874036 0.016841328 0.075009674
0.055873685 -0.02977465 0.07132462 0.11660222 0.04575098 -0.086276345 0.10202824 -0.029803315
-0.023728518 -0.036652237 0.06987379 0.077651605 0.009231888 -0.08920749 -0.034575235 0.14519095
0.027157834 -0.04629901 -0.0028316583 -0.0879661 0.022906886 0.052458253 0.023893196 -0.056433715
-0.08649745 0.04180875 0.047176767 0.053060565 -0.029306803 0.16899472 0.030750412 0.044871286
0.1366029 -0.09405729 0.101114176 0.05556528 -0.030049106 -0.20357838 -0.00460462 0.19387187
-0.15642762 0.028138842 -0.027409445 -0.0016584668 0.042460565 -0.05486786 0.23691165 0.048143107
-0.06434982 -0.15293615 0.03827851 0.039671455 -0.063585944 0.07171384 0.012885763 0.014969964
0.046470065 -0.043790434 -0.11934197 -0.056806143 -0.02828365 -0.011094387 0.031859577 0.080350555
0.048392083 -0.005995664 -0.01809447 0.14770497 -0.010805097 -0.037911262 0.0024091336 -0.005879929
-0.066678256 0.030802833 0.05547983 0.045754798 -0.035289176 0.058450237 0.051425 -0.041848525
-0.10544427 -0.012256953 -0.10012366 0.0134594375 -0.03408715 -0.16378185 0.12644234 -0.043957822
0.13982461 -0.02454164 0.043641806 -0.08202712 -0.15378584 0.033766784 -0.003071243 -0.05358702
0.16803518 0.14369622 -0.078150645 0.085175686 0.07955114 0.06491448 0.12357411 -0.09481818
0.02029682 0.016296932 -0.053234342 0.048825264 0.049471404 0.042654797 0.0367107 0.07004841
-0.048540425 0.018008046 -0.024965256 0.04214436 0.04149554 -0.013124315 -0.009033574 0.093453065
-0.0027722246 -0.036458172 -0.006051765 -0.043452863 0.02806219 0.07871077 -0.02142769 0.11825615
-0.048750013 -0.0665862 -0.09059897 0.027035529 -0.061348904 0.15764476 -0.047737457 0.01813315
-0.04342951 0.075061135 -0.13919504 -0.04118691 0.05368083 -0.13104203 -0.030536417 0.05805747
0.0680992 -0.16991349 -0.10124936 -0.006790596 -0.032826304 0.053205993 0.054251105 0.2060607
00000000: 0959 8bbc 9c3d 5abc 3b72 a13b bda6 353d
00000010: 7c20 55bd 267a 55be 371a e23d 7a16 083e
00000020: 9650 67bd b833 11be 0337 de3d 7277 4f3b
00000030: d810 2ebe d97d 1dbe b81a 0f3c 450e 033e
00000040: 7b27 393c ec09 b4bc 148c 0dbd 2ff8 8cbd
00000050: 459f 22be 88f5 aebc 45b0 2f3e a921 d53d
00000060: e222 3abd efba 7d3d 0b28 acbd 2bb4 3cbd
00000070: c448 1ebe 0d3b adbc 42ec 2e3c 1a55 993d
00000080: cb95 bfbc e2f4 d83d f9c0 643d ccae 9c3d
00000090: 453b 3bbd 0a73 133d 76c6 903d 645a f73a
000000a0: 7e62 083b 0ac0 38be 7188 9b3d 20c4 aa3c
000000b0: 30fe a739 0302 033d f8e2 1ebe 271d 38be
000000c0: 672d 6c3d 59cc 24bd 5063 48bd 77cb 803d
000000d0: b8f2 4a3c 87c2 a2bc 4b88 d33c 0dd6 0d3e
000000e0: 0014 953c a847 cbbd b528 b33d 438b 9d3d
000000f0: 8c46 303d 9b55 15bd 2c5a ce3d 71e5 a43b
00000100: c489 a6bd fe3e 9fbd f6b6 f33d 6771 e53c
00000110: 77e5 72bd 58ce 193e 5fc0 9e3d 12d7 40bd
00000120: ffc4 13be 7595 403d 9a7b ad3c 5728 10be
00000130: ffdb 213e bbde 07bd 8a47 bfbb 42a5 86bd
00000140: c5b8 283c c158 2dbd d645 0fbd 9255 bcbc
00000150: db88 04be 4f25 f5bd 7db1 18be e7dc 7b3d
00000160: 3880 5aba df9b 5dbc 9950 b03d 23a0 afbd
00000170: 3c18 933d 9369 0d3e 992d e8bd bbc5 663d
00000180: 98d4 623d 669c fb3c bffd a43d 8581 a0bd
00000190: f958 4cbd f9a3 47bd d3f6 893c ac9e 993d
000001a0: cedb 643d f7e9 f3bc a412 923d 25cd ee3d
000001b0: 6165 3b3d a7b1 b0bd 2ff4 d03d 1526 f4bc
000001c0: 4f62 c2bc a820 16bd fd19 8f3d ce07 9f3d
000001d0: 5841 173c 6bb2 b6bd c39e 0dbd f0ac 143e
000001e0: 1b7a de3c 08a4 3dbd 5893 39bb 9227 b4bd
000001f0: 39a7 bb3c 77de 563d aabb c33c 0a27 67bd
00000200: 9325 b1bd a73f 2b3d 6d3c 413d 0956 593d
00000210: d214 f0bc f40c 2d3e 4ae8 fb3c f4ca 373d
00000220: a1e1 0b3e 1ca1 c0bd f314 cf3d 6b98 633d
00000230: 8b29 f6bc da76 50be 5ae2 96bb 5986 463e
00000240: 902e 20be 6e83 e63c c689 e0bc e960 d9ba
00000250: 21eb 2d3d 1fbd 60bd f898 723e b531 453d
00000260: d7c9 83bd 4b9b 1cbe edc9 1c3d 897e 223d
00000270: 5939 82bd b5de 923d cf1e 533c 9444 753c
00000280: 6557 3e3d 995d 33bd 9069 f4bd 8fad 68bd
00000290: 1db3 e7bc 3bc5 35bc 307f 023d d58e a43d
000002a0: c736 463d 4677 c4bb db3a 94bc f93f 173e
000002b0: dd07 31bc d748 1bbd 8ee2 1d3b 6bac c0bb
000002c0: 9c8e 88bd 3956 fc3c d13e 633d 6269 3b3d
000002d0: 628b 10bd 8469 6f3d 05a3 523d 5c69 2bbd
000002e0: 2af3 d7bd 63d1 48bc a20d cdbd f984 5c3c
000002f0: f89e 0bbd 6eb6 27be 1a7a 013e 1e0d 34bd
00000300: 2f2e 0f3e 8d0b c9bc c0c1 323d d6fd a7bd
00000310: 097a 1dbe 0a4f 0a3d e846 49bb 107e 5bbd
00000320: 6a11 2c3e 1a25 133e 720d a0bd 9770 ae3d
00000330: b5eb a23d e2f1 843d 6c14 fd3d 0930 c2bd
00000340: 8445 a63c 2581 853c 410c 5abd 00fd 473d
00000350: 87a2 4a3d ccb6 2e3d f55d 163d 8a75 8f3d
00000360: 53d2 46bd 9c85 933c f083 ccbc 909f 2c3d
00000370: 3af7 293d 5e07 57bc 8e01 14bc 5264 bf3d
00000380: 36ae 35bb 2a55 15bd e24d c6bb a1fb 31bd
00000390: aee2 e53c 1d33 a13d 1f89 afbc 4830 f23d
000003a0: 18ae 47bd 585e 88bd f48b b9bd 9d79 dd3c
000003b0: fd48 7bbd a16d 213e 5a88 43bd f98b 943c
000003c0: 24e3 31bd a7b9 993d 2589 0ebe 9bb3 28bd
000003d0: 6ee0 5b3d e22f 06be 8227 fabc abcd 6d3d
000003e0: 9877 8b3d cdfd 2dbe d35b cfbd a683 debb
000003f0: e074 06bd 87ee 593d 6836 5e3d 9301 533e

fc2.bias f4 [10]
-0.013656665 -0.03924105 0.007206889 0.016672144 0.034065578 0.057965674 0.036937796 -0.03617486
0.0658897 -0.027642623
00000000: 34c0 5fbc 39bb 20bd c427 ec3b 0594 883c
00000010: 5988 0b3d 6a6d 6d3d 164c 173d 172c 14bd
00000020: 2ef1 863d c872 e2bc
